assign1-palindrome/new_weights/weights_ih2.npy (npy, 448 bytes, 1 tensors)

array f8 [10, 4]
1.7204991031203862 9.797770826055933 -1.7216903866513569 9.370671682812475 9.1808770945752 4.061765081443338 -4.428373171856035 1.8801355341966421
-1.8911159414847234 -1.6032236718594999 6.375782649338713 8.83237669374121 8.02314311436857 4.48147527951297 -4.429458148795696 -3.5970337092293785
-1.5053076645842705 3.147126362541247 -9.921636706080761 -5.624094285159287 -2.8497945984407447 -1.1278097249853725 -9.530121642629545 -6.9933987490408835
6.027855763448591 -3.9809160436832354 4.087554555120278 2.848337857065311 -2.878894652936052 -0.6643953492317084 5.77571347951827 8.093612207109551
7.741523091405247 -3.9553989013558137 4.651791721530235 -2.3295203329131104 2.192496179986412 9.650193088071413 -0.922899114411103 9.112957743092569
00000000: b430 4b11 2a87 fb3f ed39 ef6a 7598 2340
00000010: 3015 0838 0b8c fbbf 3a77 c6ad c8bd 2240
00000020: 8b97 2bec 9b5c 2240 ed55 7358 3f3f 1040
00000030: fd6b ee74 a7b6 11c0 cac0 76ff 0815 fe3f
00000040: 2df0 19ca 0242 febf 12f4 6cdd cda6 f9bf
00000050: 8b41 b52a cd80 1940 6824 2b47 2daa 2140
00000060: 63ae 0e6a d90b 2040 d75c 0ddb 07ed 1140
00000070: 1850 80e0 c3b7 11c0 7fff fd9b b9c6 0cc0
00000080: d8eb 5c7d bd15 f8bf e8f3 1b96 502d 0940
00000090: f0d1 2ec4 e0d7 23c0 bf84 8192 127f 16c0
000000a0: aff6 441c 61cc 06c0 51c4 ce35 820b f2bf
000000b0: ccfd 9b1a 6c0f 23c0 5612 8c85 3df9 1bc0
000000c0: 3711 a438 861c 1840 fced bd82 ead8 0fc0
000000d0: 006e bbe6 a759 1040 126f c05b 65c9 0640
000000e0: bbea 77eb f907 07c0 e911 1209 ba42 e5bf
000000f0: ac63 66a2 541a 1740 7415 70f0 ed2f 2040
00000100: e641 4bd4 51f7 1e40 10a9 df2d a8a4 0fc0
00000110: 851a ff49 6f9b 1240 abd4 698e dba2 02c0
00000120: 2d2c ed6f 3b8a 0140 35b4 c21b e64c 2340
00000130: c8e5 3cb9 6388 edbf 3ad3 e898 d539 2240
