assign1-palindrome/new_weights/weights_ih2.npy (npy, 448 bytes, 1 tensors)

array f8 [10, 4]
00000000: 2dba 50f6 afd6 1840 d279 33af 8c8e 1d40
00000010: dbe6 8ac4 c390 1fc0 cd23 c659 a696 0d40
00000020: a293 fe3e 6126 2740 e115 aa14 9646 11c0
00000030: 0cee 73db 27f3 07c0 d57e bb3f 5fba fc3f
00000040: dcaf c729 32f0 0540 98e6 dc64 5fcf 0240
00000050: 293c 8ee4 0ea3 1bc0 f07d 98fd 638e 2440
00000060: 61db 3b68 4e2b 21c0 6ec2 3d46 cd1c 01c0
00000070: 66c6 7f06 366a 2640 0c61 277f aac8 20c0
00000080: da0c e5a5 08c4 1940 e8a5 113e 3c4c 0340
00000090: 946d 6112 7dde f23f f994 e431 9e60 1640
000000a0: ed7a ef97 f9cd 0840 7186 9389 7950 c13f
000000b0: df2b a22f 3099 1440 830c e777 52fa 1640
000000c0: 6bd8 2939 3e84 1d40 6dcc ca9b d636 01c0
000000d0: 0de6 c6de 3b1f 27c0 29a3 d3f2 f953 2140
000000e0: dc59 c004 f5c8 12c0 1f78 b61c fd3b ec3f
000000f0: 7320 8495 e799 1240 3041 8340 b7ad 2040
00000100: 1212 be44 90f2 2440 b3cf 477c 45e4 c33f
00000110: d3d1 571d e6fd f23f 3696 fe5c 2271 0bc0
00000120: ba46 593c a7d4 1bc0 05bb 8631 02f4 1740
00000130: 9756 b3e2 4844 1d40 eb33 9e10 263c 13c0
6.209655617406082 7.389208543316686 -7.8913717946795385 3.6985594762413485 11.574960678650147 -4.318931887513345 -2.9937283653978337 1.795500992731765
2.7422831787171003 2.351256168357235 -6.909236499005638 10.278106617798556 -8.584582574183232 -2.139063404807806 11.207443430993589 -8.391925786549585
6.441439239602198 2.4122242783675922 1.1793184965125407 5.594353465630086 3.100573718067031 0.1352683946379787 5.149597877762942 5.744455216862778
7.379143613032379 -2.1517765208496287 -11.561003648547763 8.664016331038129 -4.6962471716310255 0.8823228417202279 4.650297485532167 8.339288726827903
10.473756931497551 0.15540379112610267 1.1869870325291358 -3.4302413239663805 -6.957669203709594 5.98828961739378 7.316684286304414 -4.808738956123288
