assign1-palindrome/weights_ih.npy (npy, 1728 bytes, 1 tensors)

array f8 [10, 20]
1.604636346924382 1.571813664822026 1.8235730725588153 -1.6042179939364685 1.2343366478277904 0.5578569920212432 4.99056165162541 -1.946814686288748
-0.43687458772730003 -1.390588761390641 1.4898642014340855 0.7288126757859665 1.2533386665562563 -4.1432527201013265 2.0824741198937953 -0.9996266076753849
3.2219544188270284 0.8040450718489089 5.4701435139685834 0.03037619449754751 -0.22334951747663992 -0.29403042065239554 0.1506457703337424 5.811739733544335
0.4269833341917945 -0.2276753373659818 -1.869042092695668 -0.840419334904278 3.4549248753855872 4.019815522016021 3.2076207551248146 -1.4460235349747743
0.5944075856813373 -1.6540032708091739 1.2884146186632055 -0.7460248763933024 -4.059626464314455 1.044384700494403 -3.2206831958050413 4.184826467953927
1.976819890027916 1.6349265946518061 0.4640171356054472 -4.136235891390046 -0.2230759448467851 4.171590616282344 0.15514232959693028 -0.4283886437556511
3.25406412823453 0.28348219496989735 -0.44612226235376895 1.0756361669519396 1.6051501273777753 2.720030398487907 0.7615003481634821 0.7158092512713855
2.858036625294525 1.8322328710065858 -2.698822952169062 4.928155758185775 1.6711202723476095 0.8177395264984647 0.2348057320667012 4.143115121410254
1.5775315313247444 0.42097866716423243 0.04628237108299272 -2.252420273656536 0.058698076664485545 3.2226655769522146 -0.38103128213171 -0.1953524657536319
1.2680780427520535 4.91890258011233 2.5630780226425047 4.122190166879168 1.2536089294451886 1.707079897698965 -1.1822033009409818 -4.073173474134886
1.1252359658061046 1.6500589013262847 1.8991265069746828 3.056498197749315 2.0101066680694055 -0.65707428554063 -0.47494237774591946 1.1658509443779084
-0.36914617374898295 -0.23497351826007437 2.5560079456098035 4.458896602208257 0.528873597786074 -1.3869150539082507 -0.8847753375286411 1.3215245020933837
5.7819997670493235 1.2301011488944875 -3.386566672048346 -2.6724882944526507 1.6408658705473158 1.8918909735475327 1.9054135138451411 -2.286107782201948
2.192184200905347 0.276806808037931 0.12135237243501586 -0.853212321685194 0.09578437293035351 -0.17643502965863117 2.37620770486679 3.9137863896068095
1.1987627843362332 1.7647798091334748 0.07891466727339591 1.6342912178147457 -4.5906961591398465 1.7176539459832743 4.3382215777664985 3.727267133000301
1.661913688672245 0.6807276365663909 0.19836109646083705 -2.940404589027502 1.415794045278619 0.6848809370028355 0.05507674886686771 2.953284223020592
-0.7510497322081984 2.865314909227843 -0.7851038458633147 -0.2601683258903639 1.0076800424750434 -3.981021497527009 2.5161900712464678 4.076867266585622
-0.6098308611408063 1.5380310666312969 1.5447108002307883 5.190613456155815 1.7198746794368902 1.7191901478689988 0.3862309323243794 5.023674320527878
-0.35500042291459233 4.0037633983251615 -0.13207629754553254 0.46967957217459644 3.255448306761724 -0.6343113171297106 -0.46179802975286033 1.225798542707729
1.5611970766902754 -1.848427566655819 0.06672130721195035 -0.6271432960843767 -2.050308913974203 1.5185842449160403 3.757585768350958 -4.027848572996576
0.06544127189834743 0.16482029313309662 0.8837650998496807 -4.829624353498543 1.1585488072041368 -0.6489365303947845 1.2335630519476697 1.1299958977899471
3.3584406649386085 3.9653897522937522 3.835597487180878 1.0769937137071894 0.5145128113395064 2.411556192516552 1.6559667822768898 -0.39187302125222095
4.727548084597565 1.4454923235514987 3.817524065463225 -3.3483996391464093 1.371336394937444 1.4126592391032622 1.5715862207144473 2.2527197877942204
1.2339563976105317 0.8322655998826617 5.173653471909205 3.3481572818937213 -0.03275818665970233 0.46066772512241144 1.1548971125748646 -0.9354147668030102
1.291767164422243 5.421401459701322 2.5157297065709163 0.7559778874980206 -2.2298759307772515 0.5306867321915982 -4.127221215009131 0.08517035388142871
00000000: c935 8029 97ac f93f 6a10 dd15 2626 f93f
00000010: ff19 48f5 5a2d fd3f 2cca b97c e0aa f9bf
00000020: 48cb eac8 d7bf f33f 0170 12e8 f6d9 e13f
00000030: 8d9c 29cb 55f6 1340 07b9 0f28 2726 ffbf
00000040: ce80 afd4 c0f5 dbbf 2aba 4500 da3f f6bf
00000050: b53f 4ad8 7bd6 f73f ba26 edf5 6e52 e73f
00000060: eebd 7ad8 ac0d f43f cc97 4fd7 b092 10c0
00000070: 8fae fd30 e8a8 0040 a1ab 85f0 f0fc efbf
00000080: a884 d009 90c6 0940 ac3b 03bb bcba e93f
00000090: b4af 234d 6de1 1540 2b8e c6e7 ef1a 9f3f
000000a0: bddc 918c b796 ccbf 5bcb 2ef8 64d1 d2bf
000000b0: 7d9c 6e50 5c48 c33f 27bf 61b3 383f 1740
000000c0: 679c 12e8 b153 db3f 3ddc 0b28 7724 cdbf
000000d0: ce9a 6fae 98e7 fdbf d5e0 ca16 b7e4 eabf
000000e0: 0258 2fa7 afa3 0b40 440c 2c85 4a14 1040
000000f0: f0da 0912 35a9 0940 5168 ff92 e922 f7bf
00000100: 76dc 9f0e 6305 e33f 91a3 3922 cc76 fabf
00000110: 688c ada5 589d f43f da92 c38f 6fdf e7bf
00000120: a8d3 48b8 0e3d 10c0 380f 51bb ccb5 f03f
00000130: 4913 268d f5c3 09c0 7230 4d26 43bd 1040
00000140: 1309 9ce4 0da1 ff3f 143e f6c9 a828 fa3f
00000150: 2460 8ded 74b2 dd3f 233f e86b 818b 10c0
00000160: 3614 d2a7 c08d ccbf c0ee 5473 b5af 1040
00000170: 6f0a ec2f b4db c33f da21 ba33 b86a dbbf
00000180: 1cd5 0ec6 5208 0a40 6037 1981 9224 d23f
00000190: 12ed b463 448d dcbf 0841 f744 ce35 f13f
000001a0: dd1f 64e6 b1ae f93f 200d 2d4c 9fc2 0540
000001b0: 1227 68fa 355e e83f ab50 8ccd e8e7 e63f
000001c0: 1248 634e 42dd 0640 5212 3a6a d350 fd3f
000001d0: 1515 ea7c 3097 05c0 0902 8c76 6eb6 1340
000001e0: 48a6 569c e8bc fa3f 47a3 5e15 ec2a ea3f
000001f0: a0e5 113e 1d0e ce3f 9814 38c5 8c92 1040
00000200: 5f2d f7b3 913d f93f d52d f281 50f1 da3f
00000210: a196 5dac 52b2 a73f 179e a1eb f404 02c0
00000220: bd60 399f ac0d ae3f 4ba3 d7e3 04c8 0940
00000230: 9e8d e007 d162 d8bf 626a cd41 4f01 c9bf
00000240: 0855 a633 0c4a f43f 7f2b 47cc f4ac 1340
00000250: 6ac4 e20c 2f81 0440 248e 4a6b 1f7d 1040
00000260: ee0c 9f3c c80e f43f d36a c402 3350 fb3f
00000270: 783c 2c02 4eea f2bf 4b60 b9fc ed4a 10c0
00000280: 1db9 966d f700 f23f aab8 9a29 a466 fa3f
00000290: 85c4 e679 d262 fe3f 14ee bc53 b573 0840
000002a0: 12a3 06ce b214 0040 f810 eea6 c006 e5bf
000002b0: 11ce f9b6 7465 debf 41d2 e151 53a7 f23f
000002c0: b081 ec45 17a0 d7bf ab31 2dbc 9c13 cebf
000002d0: 99ae 354b b472 0440 81eb aafd e8d5 1140
000002e0: 81b0 c652 88ec e03f 31db edd6 cd30 f6bf
000002f0: a2c5 5f5e 1450 ecbf 07a9 55e0 f624 f53f
00000300: 6bd3 038c c420 1740 b161 d48a 7eae f33f
00000310: a05e 7144 b017 0bc0 85ef fc8a 4161 05c0
00000320: 00f9 3192 fc40 fa3f 81bf 2f78 2f45 fe3f
00000330: 2524 75e1 927c fe3f f681 7de0 f249 02c0
00000340: 2592 cdde 9789 0140 ea50 f5e6 33b7 d13f
00000350: f180 e6f6 f210 bf3f 17d4 45ed 834d ebbf
00000360: 0b28 341d 5385 b83f 8e55 204d 6c95 c6bf
00000370: a83f 672f 7902 0340 1921 173d 6f4f 0f40
00000380: 262d a6e2 212e f33f 0ce9 cdc0 893c fc3f
00000390: 482c 1d6b c033 b43f 3378 4a8c 0e26 fa3f
000003a0: 8983 3574 df5c 12c0 087f 3db4 827b fb3f
000003b0: 0a3c ddc1 565a 1140 2a89 3d6e 71d1 0d40
000003c0: c9f3 d9ce 3297 fa3f 1927 1153 85c8 e53f
000003d0: 268b 0c7b e563 c93f 310d 57d7 f285 07c0
000003e0: cc7d 25a8 17a7 f63f ac97 426d 8bea e53f
000003f0: 7a70 4e06 0533 ac3f 6754 8d7a 53a0 0740
00000400: e21e b072 9908 e8bf 94ff 1e39 2aec 0640
00000410: df4b be19 921f e9bf 23de c90c 99a6 d0bf
00000420: fb31 b41b 751f f03f 5e69 84cc 21d9 0fc0
00000430: 1b30 9442 2821 0440 ff78 f04a b64e 1040
00000440: f81e 9602 bc83 e3bf 5b9d b676 c69b f83f
00000450: bf4e 0cac 22b7 f83f 8f77 812c 30c3 1440
00000460: 1a66 d64f 9b84 fb3f 7b3e 4b87 cd81 fb3f
00000470: e95a c2f1 01b8 d83f 64b0 c114 3e18 1440
00000480: 7aff 9eb1 53b8 d6bf dfe9 628d da03 1040
00000490: 3975 4449 e0e7 c0bf dab4 85e8 3a0f de3f
000004a0: a6e1 5a7b 280b 0a40 dac0 513f 474c e4bf
000004b0: 4c54 c952 198e ddbf 61a0 c6ee de9c f33f
000004c0: b8ed 2fc9 a9fa f83f 53fc bcc8 2893 fdbf
000004d0: 40f4 6bc8 a514 b13f 3fd1 52d1 8e11 e4bf
000004e0: 59bb 215c 0867 00c0 f929 42fe 1e4c f83f
000004f0: f3db 9720 890f 0e40 d10a 1956 841c 10c0
00000500: 0daf 9c5a c2c0 b03f efa4 5cd4 d418 c53f
00000510: ee6a 26bf cd47 ec3f 2ef7 e80b 8951 13c0
00000520: 6b2f 5c79 6a89 f23f bc35 e78a 16c4 e4bf
00000530: 01b5 5a9c acbc f33f a3f3 1994 7614 f23f
00000540: 17be ab23 16de 0a40 2ff6 2f43 1eb9 0f40
00000550: 427e 40bc 4daf 0e40 61eb a5c2 5d3b f13f
00000560: 3770 4292 e376 e03f 5699 1af9 dd4a 0340
00000570: f843 5206 d77e fa3f d3a1 9d94 7214 d9bf
00000580: b874 765d 02e9 1240 225d 048f bc20 f73f
00000590: 31dc a60e 4a8a 0e40 8493 00c0 85c9 0ac0
000005a0: 4022 816e fef0 f53f bc73 0593 409a f63f
000005b0: 2f01 cd97 3725 f93f a106 bdf3 9105 0240
000005c0: d6d5 4610 49be f33f 8b9e a277 eba1 ea3f
000005d0: 60bf 3a37 d2b1 1440 44c8 5caf 06c9 0a40
000005e0: 1266 c258 aec5 a0bf 694d 6e7b 947b dd3f
000005f0: de0f 0c65 757a f23f 20a9 f3f2 eaee edbf
00000600: d0d7 d30b 14ab f43f 889d 3fdd 83af 1540
00000610: d161 7ae5 3620 0440 89b3 e989 f830 e83f
00000620: 5a9b 2631 c9d6 01c0 88e3 e5bd 62fb e03f
00000630: 5249 3747 4682 10c0 7a6d 826c b9cd b53f
