assign1-palindrome/weights/weights_ih.npy (npy, 448 bytes, 1 tensors)

array f8 [10, 4]
000000 76 9b 3a 7b 39 02 df 3f 50 5c 1a 2e a7 15 32 40
       0.48451077493739747 18.08458221572465
000010 7d 7f 48 9e 22 c8 20 40 04 15 9e 2b 3e 1b 32 c0
       8.390889116620878 -18.106417394727956
000020 59 73 62 e4 24 6d d0 bf 1e 2c c7 0d 20 86 24 c0
       -0.2566616277998058 -10.261963301241902
000030 ea 60 b8 f8 8d aa 14 40 3c 1b 44 c3 6a c8 24 40
       5.1665572035346745 10.391439535201805
000040 cf ac f5 af bd a2 20 40 d6 1a 4a 53 de ef 2e 40
       8.317853449573162 15.468493082805633
000050 e3 a6 46 6e 1c 5d e2 bf f7 16 0f 7d 91 06 2f c0
       -0.5738660959079563 -15.512828739254003
000060 ad ce 0f 2f 67 54 1e 40 96 19 51 3f a8 9a 34 c0
       7.582424865093043 -20.604129750537673
000070 db 5e 82 e1 b7 4b e7 bf 0f b0 62 50 12 cf 34 40
       -0.7279929546811802 20.808873199552234
000080 f0 03 69 91 4d 70 e3 3f ac e4 c5 b0 6b 9e 44 40
       0.6074588623088157 41.23766145384556
000090 7a f0 c7 f2 39 92 d4 bf f5 43 f2 b6 45 c3 44 c0
       -0.321424948778947 -41.52556502179497
0000a0 b6 32 d1 97 c2 54 d8 bf 0f ea 01 5d 20 9f 44 c0
       -0.3801733477201127 -41.24317514985534
0000b0 1b 4a a4 fc a1 2e cc bf 89 00 f1 be 59 c2 44 40
       -0.2201731189348529 41.51836382644348
0000c0 15 eb 8b fc 3a 25 20 40 02 a7 5d a3 18 aa 34 40
       8.072715656356687 20.66443844829974
0000d0 5b 3b 91 48 95 55 e7 bf 8c 6e 73 3d 9a be 34 c0
       -0.7291971604662238 -20.744541016275022
0000e0 fe a7 31 15 65 7c 1c 40 56 f4 97 f3 f8 d2 2e c0
       7.121479350238586 -15.412055599497915
0000f0 23 17 ee 5e be 00 d8 bf bc 27 a1 c4 6b 25 2f 40
       -0.37504538794051906 15.573087830230968
000100 4c d6 19 c9 89 3e dc bf 05 ba 54 1f 79 a3 24 40
       -0.4413170303226692 10.319283465473754
000110 ca b7 a2 63 41 06 1b 40 60 f9 67 5a 01 a7 24 c0
       6.756108815008654 -10.326182198707727
000120 50 11 57 48 d6 e5 c0 bf d9 93 2f 97 9b 00 32 c0
       -0.13201406986457664 -18.002374123683555
000130 83 db 8f 45 ed 50 20 40 18 cc b9 a5 1d 3a 32 40
       8.158060239611364 18.22701488290849
