assign1-palindrome/checkpoints/weights_ih.npy (npy, 448 bytes, 1 tensors)

array f8 [10, 4]
-9.247828646840656 1.351531333880212 9.981114049595698 0.03075372001732025 -4.304941995596076 -2.4247808634379537 5.02954045685016 7.3553884886860015
6.867953660048897 1.0911583159264127 -6.184890020330319 0.1435316127243254 -24.955503337844952 1.082481829935308 25.85099723196564 0.1090337634031823
-12.32818250081358 1.1022022759844676 13.148309299202323 0.12144731052954624 13.041435849202175 1.1096099778034068 -12.427522918333358 0.12517851894621643
25.642544564438463 1.0834455467567927 -25.161442670040064 0.11997235078981151 -6.1346076475774876 1.0909138834159284 6.927993783174324 0.1353946495236029
4.986734074419009 -2.421931595493079 -4.338709038555167 7.3719188370474775 9.901120635071818 1.3508931264451323 -9.326151584135182 0.039725856105363354
00000000: 9662 7a65 e37e 22c0 688e e851 df9f f53f
00000010: bd51 a994 54f6 2340 03a5 d136 e77d 9f3f
00000020: 6a0c e9b6 4238 11c0 1376 6382 f365 03c0
00000030: 4452 80da 3f1e 1440 fe1f c1f5 ea6b 1d40
00000040: 006a 21d8 c878 1b40 1a99 1a6c 6275 f13f
00000050: b5b3 3acf 53bd 18c0 32eb 4b6f 3e5f c23f
00000060: 4e43 e3dd 9bf4 38c0 d261 a177 d851 f13f
00000070: 6947 60f4 dad9 3940 eaf9 f9ff a2e9 bb3f
00000080: 473a 6889 07a8 28c0 81e1 8eda 9ea2 f13f
00000090: 8788 4b32 ef4b 2a40 d65b e9c2 2b17 bf3f
000000a0: 2169 6214 3715 2a40 d7b1 5f64 f6c0 f13f
000000b0: 8310 b148 e4da 28c0 5792 8486 d905 c03f
000000c0: 5b7c f2cc 7da4 3940 8313 65ff ca55 f13f
000000d0: 4100 8c4e 5429 39c0 d904 110b 82b6 be3f
000000e0: 168c 5096 d689 18c0 5c61 c01d 6274 f13f
000000f0: 0a80 9600 44b6 1b40 c7ed e0a3 9c54 c13f
00000100: f5e9 cd6a 6af2 1340 c355 1eac 1d60 03c0
00000110: f1d0 cd8a d65a 11c0 848a a74a d87c 1d40
00000120: b7c4 12af 5fcd 2340 8e91 671c 429d f53f
00000130: 64cc 2657 fda6 22c0 0b68 8e89 f256 a43f
